python_service/best_respiratory_model.pth (torch, 745803 bytes, 90 tensors)

conv1.bias f4 [128]
00000000: 00d9 7c38 7f52 a1b8 88b8 4138 296b 7639
00000010: d1dc 7339 8f65 8db7 a25e 3d38 d874 9a38
00000020: 210a 2fba 79f0 9bb7 46fd 0938 5572 acb8
00000030: c47b f7b7 fce4 4bb8 cf89 5ab6 ceff 5a38
00000040: 8c0c f7b8 14ac 9338 18c0 97b9 fc17 d338
00000050: ce9e 5839 200f 33b9 c19c fe38 ce6f 0e3a
00000060: c263 bdb6 56a5 9038 391a db38 e11c 4c37
00000070: e91e ce38 19a4 0f3a c7f4 11b8 b145 8138
00000080: f594 60b8 ef63 9a38 807d 9437 59da 9639
00000090: 04d9 fc38 9850 e938 67e4 ac38 fca3 0339
000000a0: bc07 da38 1570 d5b7 2552 e737 0d9f 1a3a
000000b0: df7e aeb8 5b00 bfb8 3c7e c338 6c6a 2db8
000000c0: 4089 8db7 1c71 2138 e024 01b9 7865 ba39
000000d0: 6176 dd39 28dd 4139 a6f0 fa39 156f 81b7
000000e0: 87a5 93b8 678a 78b7 ac9e 6b37 82f4 eeb7
000000f0: 1214 f7b7 c947 fdba 84ff 3db8 44e2 8a39
00000100: de16 0d37 a530 e5b9 3b28 ea37 3b76 a83a
00000110: 5bf6 4f39 f9dd 9437 732c b139 8a51 70b9
00000120: f218 ba38 52fc 4dba 457f 0f37 eb8a 3e39
00000130: 55a7 8e37 7943 6736 56bd 0838 612d 0cba
00000140: ca20 37b8 d795 a239 4514 c7b9 216f 03b9
00000150: 70d7 0339 2df6 1b3a f433 5736 fce9 3138
00000160: f94d 1cb9 304d 8e39 0cf1 c338 2df3 68ba
00000170: 1963 60b8 a72e 6838 cea3 b936 71c8 9c39
00000180: 01c5 6c35 6c07 17b8 f30b a1b8 3e6a 2339
00000190: f94b ceb7 8d24 15ba aa6f c7b8 6685 99b9
000001a0: 3828 3e37 efdf 3538 6a28 2338 99cc d1b7
000001b0: 16bf f6b9 2535 82b8 9265 da37 4f25 10b9
000001c0: 1fcf 1938 b7b8 0339 03dd 1739 3fe0 d539
000001d0: 2f21 9038 f0b3 0237 2c3e 36b7 ecda 9638
000001e0: 8031 1b3a b1bd 1cb8 0b86 7a39 1944 0eb9
000001f0: a253 ad38 157d 8c3a 19c4 8a38 aea6 d937
6.028358e-05 -7.692444e-05 4.6186644e-05 0.00023500308 0.00023256546 -1.6855802e-05 4.5149245e-05 7.365056e-05
-0.00066772295 -1.8589419e-05 3.2899225e-05 -8.222895e-05 -2.9502327e-05 -4.861223e-05 -3.2564747e-06 5.2213487e-05
-0.00011780215 7.041558e-05 -0.00028944085 0.000100657315 0.00020658525 -0.00017076405 0.000121408615 0.00054335303
-5.6442523e-06 6.897251e-05 0.00010447618 1.2166071e-05 9.828603e-05 0.00054794695 -3.479866e-05 6.1641804e-05
-5.354449e-05 7.361906e-05 1.7701415e-05 0.0002877291 0.00012056719 0.000111253175 8.2441424e-05 0.00012554222
0.00010396491 -2.5443771e-05 2.7575597e-05 0.0005898334 -8.320598e-05 -9.107656e-05 9.3218376e-05 -4.1345527e-05
-1.6872422e-05 3.8490733e-05 -0.00012316136 0.00035552285 0.00042240604 0.00018488301 0.00047863013 -1.5429725e-05
-7.040338e-05 -1.4814176e-05 1.4044035e-05 -2.8485669e-05 -2.945404e-05 -0.0019323762 -4.529908e-05 0.00026489992
8.409579e-06 -0.00043714527 2.7913708e-05 0.0012852618 0.00019832833 1.7746339e-05 0.00033793188 -0.00022918559
8.8738176e-05 -0.0007857728 8.553096e-06 0.00018171563 1.700564e-05 3.4460957e-06 3.260126e-05 -0.0005347338
-4.3661137e-05 0.00031010687 -0.0003797134 -0.00012534532 0.0001257339 0.0005949464 3.2067737e-06 4.2418003e-05
-0.00014906366 0.0002714186 9.343223e-05 -0.00088863337 -5.3498054e-05 5.535656e-05 5.532499e-06 0.0002990398
8.820353e-07 -3.6008118e-05 -7.679304e-05 0.0001558447 -2.4592491e-05 -0.00056893454 -9.5098585e-05 -0.00029281824
1.1334247e-05 4.3362317e-05 3.8899867e-05 -2.5010015e-05 -0.00047063146 -6.208782e-05 2.6034922e-05 -0.00013746809
3.667094e-05 0.00012561945 0.00014482815 0.00040793602 6.872636e-05 7.790499e-06 -1.0862521e-05 7.193335e-05
0.0005920157 -3.7369962e-05 0.00023891793 -0.00013567544 8.264861e-05 0.001071843 6.616879e-05 2.5946032e-05

conv1.lin.weight f4 [128, 76]
00000000: c06f d3bd 3af2 0fbd 91da 0dbe 4798 f2bb
00000010: 0889 79be c229 19be 8b0b 49be 0a7d 123e
00000020: 7ba5 15bd c4f3 afbd 3ba6 3c3e 2500 bf3e
00000030: 1fbd 103e 9f0e 0dbd 72ea 813d 82c1 d83d
00000040: c493 e53b 851d 32bc bae4 493e a001 8d3c
00000050: 64ff 99bd 2eb7 35be db76 1b3d 946d 193e
00000060: 7f52 46bd 62a1 25be ad9f 033e a8a0 c73e
00000070: 1ab0 9f3e 2f92 203d 749f 063d ccd2 953d
00000080: 8105 33be 38aa a9be 8edb c0be 8721 f8be
00000090: f470 16bf a690 f4be 0e95 3bbd 1e7b 96ba
000000a0: db0e 34be 02a9 4a3e 7fd7 c3bc 9fc0 673e
000000b0: 762d 5b3e 5ad0 28bd a48c 36be 24b8 98bc
000000c0: c4e0 503d d418 88be 5171 b93e 07a8 843e
000000d0: 7ea3 d9bc f8a8 4cbe cdce 8cbe 7e4a d8be
000000e0: 1d9f 6ebe 45ca ee3d bd68 e73e 9e57 e23e
000000f0: 4ccf 0e3f 685c 183f b2bb d83d 2ed2 59be
00000100: 107b 6f3e 8c0e b93d 9a06 fb3c 8e96 d03d
00000110: 3901 323e f489 813e 9a06 013e cbbf 813d
00000120: 88c2 f6bc 6ac6 753d fc93 79bd d98e 6b3e
00000130: 178c 23be aebb 8a3d be90 62bd aa67 a5bd
00000140: a895 6d3d 47e7 b9bc 14e2 43be 0167 d1bd
00000150: 918f 953e 1364 c8bd b0fa f0bd 1346 90be
00000160: 1d1d 293d 3012 70be 804f b0be eb29 e9be
00000170: 5863 cabe 54bd 67be 10b3 6d3e 3ebc 843d
00000180: 6613 523e 61ec 103e bc71 3e3e eb75 273e
00000190: 1031 6c3d d7b3 ba3d a471 093c 6fb5 b03e
000001a0: c9f5 0b3f a657 593e e90b a73d d629 68be
000001b0: 5e41 20be 0993 0abe c8d9 9fbe 1d07 f8be
000001c0: f15b 2fbe e730 36be e76d 93be e160 bbbd
000001d0: 5fa6 bb3d b074 05be dc7d bc3d 0c0e dcbd
000001e0: 5eed a6be eba4 d2bd 8090 463b 35c9 653e
000001f0: a717 70bd abf9 1cbd f8e3 e73e 5425 063f
00000200: c9c9 9e3e cb66 f93d ec75 153e d137 1dbe
00000210: aa46 10be c578 23bd a3a7 8d3d c98c 503d
00000220: 4d4e a13e 837d 863e aa30 843c d300 933d
00000230: 90d3 10be 9d51 aabd 52b3 983d 557d 7cbd
00000240: 8efc 21bd 1d6b b1bd 7a55 47bd 423b 39be
00000250: 6e56 dbbc b9fd 7abd 9f59 61bd 5313 ebbd
00000260: 1be6 b13d 05f8 043e 78ca a2bd 4f5b 213e
00000270: c41f 813c 806c 133e 4a6d 14be 1af4 61bd
00000280: 4fa3 9b3d 1b6b 85bd 4e79 70be d78c 28be
00000290: 8921 0c3e b3a8 49be fc07 903d 99a3 b3bd
000002a0: a47f bfbe 117e 6a3c bbc0 1a3e 0ad7 213d
000002b0: 1a85 413e 9945 d83e 6c78 963e 0895 743e
000002c0: 6912 f23d b55a 88be 7c9e 34be 3763 f3bd
000002d0: 7d79 36be c84c 93be e6be 08be 62dd 9fbe
000002e0: 78f5 163e 56d6 853e b973 ec3e 1f48 dfbd
000002f0: 95d5 2bbe ae97 76bc ab1d 973e 1372 5b3c
00000300: df37 873c c2cd 3b3c 05cd 8e3e a7d1 a7be
00000310: efa7 9dbe 90a5 443e be4f 78be fe84 a8bd
00000320: 7b9c 18bd 6fe4 77bd f450 633e 8448 c23e
00000330: 3c7a 603e 8748 a63e 0484 003e bac4 f63d
00000340: 8332 3e3e 21d8 b0bd 3930 4c3d 31ae 103b
00000350: 1d36 233e 31fa 9b3e 1f72 b8bd 4741 8ebd
00000360: 5d11 68be 64e3 3fbd d7aa 763e d0fe 3fbd
00000370: cda4 3fbe 507e 4fbe df68 0c3e 59e4 053e
00000380: 1946 abbd 67fd 9cbd b7ff a5bd b516 7fbe
00000390: 3885 f53d ae1b 03be b40f 80bd 2bd2 413e
000003a0: 2e1b b2bd f6d1 2dbe 2cf3 aabe 1ecd 61bd
000003b0: c453 f33d 1805 1cbe 5e53 8fbe 8975 3abe
000003c0: 5a44 213b 847f 063e a1bc 09bd 8047 d7b9
000003d0: 43e6 e1bd 2c87 4fbe 9eaa 2ebc 840e ba3d
000003e0: b2cb 533d efe4 0c3d a23e 4abe 2bb2 11be
000003f0: e12b 823d 6a29 ebbd 13bc 693e 722a ef3e
-0.10324049 -0.035143115 -0.13852908 -0.007403407 -0.2436868 -0.14957336 -0.1963331 0.14305511
-0.036534768 -0.085914165 0.18422787 0.37304798 0.14134644 -0.034437772 0.06343545 0.10583784
0.0070061404 -0.010871296 0.19716159 0.017212689 -0.07519415 -0.17745659 0.037955146 0.14983207
-0.04841852 -0.16174844 0.1285388 0.38989758 0.31189042 0.03920191 0.03286691 0.07315597
-0.17482568 -0.3313768 -0.37667507 -0.4846308 -0.587661 -0.47766608 -0.045796447 -0.0011480784
-0.17583792 0.19791034 -0.023906467 0.22632073 0.2140406 -0.041214325 -0.17827088 -0.018642493
0.050995603 -0.26581442 0.36219266 0.25909445 -0.026567217 -0.19986331 -0.27501526 -0.42244333
-0.23302884 0.116596736 0.45197096 0.44207472 0.5578506 0.59516 0.10582675 -0.21271583
0.23386788 0.09035978 0.030642796 0.10184966 0.17383279 0.25300562 0.12600175 0.0633541
-0.030122057 0.060003676 -0.060932145 0.23003711 -0.15971409 0.06774078 -0.05531382 -0.08076413
0.05800405 -0.02269329 -0.1912921 -0.102247246 0.29211095 -0.09784713 -0.11766565 -0.28178462
0.04128753 -0.23444438 -0.34435654 -0.45539793 -0.39528918 -0.22630817 0.23212838 0.06481217
0.20515212 0.14152671 0.18598074 0.16353576 0.057663977 0.09116333 0.00838891 0.34513423
0.54671913 0.21224841 0.081565686 -0.22672209 -0.15649936 -0.13532652 -0.3122084 -0.48442927
-0.17124917 -0.17792092 -0.28794786 -0.091493376 0.09162592 -0.13032794 0.09203693 -0.10744867
-0.32602972 -0.10285362 0.003029853 0.22440036 -0.058616307 -0.03832404 0.45291114 0.5240071
0.31013325 0.12177809 0.14595765 -0.15353324 -0.14089456 -0.039910097 0.0691674 0.050915513
0.3150505 0.26267633 0.016136486 0.071778916 -0.14143205 -0.08316348 0.07456078 -0.061642963
-0.039547496 -0.08663008 -0.0486655 -0.18089011 -0.026774611 -0.061277125 -0.05501711 -0.11478295
0.08686467 0.12985237 -0.07948774 0.15757488 0.015762217 0.14396858 -0.14494815 -0.055164434
0.07599508 -0.06514569 -0.23483774 -0.16459976 0.13684668 -0.1969326 0.07032773 -0.08771438
-0.3740207 0.014312283 0.15112583 0.039511718 0.1889843 0.422406 0.2938875 0.23884976
0.11819918 -0.26631704 -0.17638582 -0.11884158 -0.17819782 -0.28769517 -0.13354072 -0.3122359
0.14742076 0.26140088 0.4618204 -0.10902428 -0.16780694 -0.015050812 0.29514822 0.013393897
0.016506134 0.011462631 0.27890792 -0.3277714 -0.30792186 0.19203782 -0.24249169 -0.08228491
-0.037258606 -0.060520586 0.2219885 0.3794595 0.21921629 0.3247721 0.1255036 0.12049241
0.18573956 -0.08634973 0.049850676 0.0022076482 0.15938611 0.30464318 -0.09006142 -0.069460444
-0.22662874 -0.046847716 0.24088608 -0.046873868 -0.1871521 -0.20263028 0.1371188 0.13075389
-0.083629794 -0.0766552 -0.08105414 -0.24911006 0.119883 -0.12803528 -0.06252995 0.18927829
-0.0869659 -0.16974625 -0.3338865 -0.055127256 0.118812114 -0.15236318 -0.27993292 -0.18208899
0.002460739 0.13134581 -0.033627156 -0.00041061267 -0.11030247 -0.20266408 -0.0106607955 0.090848
0.05170793 0.034398016 -0.19750455 -0.14228122 0.063560255 -0.114825085 0.22825651 0.4671207

conv2.bias f4 [128]
00000000: 0d26 863a d9b0 08bb c030 f5ba 4686 a2b9
00000010: 544a 45ba fc71 7bbb ca7f 9fba 0924 2eba
00000020: 4d5b dd3a 115a 393b 9f60 bcba a28c 1bbb
00000030: 9426 cdba 779f 44bb 4ea4 ef3a 8fa1 2b39
00000040: cad0 333a 87e9 45ba 26ce ee3b 40cf 413a
00000050: dcd8 203b 0319 163b 9295 0d3c 795b 1eba
00000060: c9ff 18bb 5f4b 94bb 7a2b 29b9 fa4f cc3b
00000070: b1c7 bb3a e7d4 193b 1b26 d03b 7c56 2d3a
00000080: c479 cd3a 65e1 0abb f0ca fd38 d339 a038
00000090: 9923 17bb 1945 87ba b294 2ebb b1af be37
000000a0: f965 9a3a 593e 09bb 91af efba 8517 95bb
000000b0: 9269 d4b8 a6f1 9dbb f46e 6538 54bd 5bb9
000000c0: 2d89 1cba 3481 3c3b 0fff b13b 3b5f c6ba
000000d0: 2b48 ef39 1960 b0ba d97e 42ba 3a2c 073a
000000e0: 0828 eaba f448 00ba 4894 77b7 c6da 153c
000000f0: 1640 d0b9 5227 d239 9da6 20b8 19fb 8b3b
00000100: c1c4 a0bb 370b 4a3b 45a8 f0ba 3466 d13b
00000110: 9dda 05bb ed74 bbb9 e914 81bb 856f 9d3b
00000120: 5c2a 523b 6e40 d53b 2ee4 b53a 7808 afb9
00000130: b4d7 4fb8 8c86 1abc 6e55 a63a 9aea 143a
00000140: 2601 0fbb 184c 89bb 1cbd 103b 4bcf 96ba
00000150: 116f 89ba 2789 feba 3f55 153b 72c0 07bb
00000160: ff68 eeba 8b93 a43a b778 29bb 7f40 25bc
00000170: ca8f 3a3b 0ccc 293b 45e9 0fbb 7eb0 3b3a
00000180: e773 013b 923e 5c3a 72d0 fe38 3b81 0dbb
00000190: 25f7 6fbb 4d3b a5ba b1a6 ddb9 ce33 753b
000001a0: 2544 b03a 76d8 ddbb ee9b 68bb 1980 af3b
000001b0: b452 f839 2ca2 10bb 71fd eaba ca69 bf39
000001c0: f34f 9bbb 2a9e a13a 7dd4 66ba 765e b93a
000001d0: 42c7 b13a 39fa 113b 688e 77b9 8a7d 94bb
000001e0: 7536 8dbb 230c 37ba 0916 10bb 434c db3a
000001f0: bfae 3fb9 984c 16bb 0915 4b3a 9a9f 51b9
0.0010234729 -0.0020857363 -0.0018706545 -0.0003099909 -0.00075260294 -0.00383675 -0.0012168821 -0.0006642943
0.0016888172 0.0028282444 -0.0014372057 -0.0023734947 -0.0015651756 -0.0030002275 0.001828322 0.00016368016
0.000685942 -0.0007549752 0.0072877584 0.00073932484 0.002454332 0.0022903092 0.008641617 -0.0006040852
-0.002334582 -0.0045255865 -0.00016133292 0.00623512 0.001432648 0.0023472847 0.006352199 0.00066123134
0.0015676548 -0.0021191475 0.0001210178 7.640165e-05 -0.002306199 -0.0010320275 -0.0026638922 2.2731578e-05
0.0011779658 -0.0020941703 -0.0018286576 -0.004549923 -0.00010128612 -0.0048200665 5.4701188e-05 -0.00020955998
-0.00059713685 0.0028763535 0.0054320167 -0.0015134582 0.00045639402 -0.0013456374 -0.00074194145 0.00051564316
-0.0017864713 -0.00048936834 -1.4756872e-05 0.009146398 -0.000397206 0.00040083617 -3.8302143e-05 0.0042718765
-0.0049062674 0.0030829438 -0.0018360695 0.0063903574 -0.0020424493 -0.00035754536 -0.0039392603 0.004804554
0.0032068705 0.0065079248 0.0013877207 -0.0003338491 -4.9553535e-05 -0.009431493 0.0012690255 0.00056807103
-0.0021820753 -0.0041899793 0.0022085374 -0.001150587 -0.0010485371 -0.0019419537 0.0022786406 -0.0020714072
-0.001818925 0.0012556178 -0.0025859305 -0.010086178 0.0028467053 0.0025908975 -0.0021959108 0.0007159783
0.001975292 0.00084016577 0.0001215049 -0.002159192 -0.0036615815 -0.0012606174 -0.000422766 0.0037414911
0.0013448043 -0.006770189 -0.0035493332 0.0053558466 0.00047363865 -0.0022069318 -0.0017928315 0.00036509178
-0.0047397553 0.0012330462 -0.0008805467 0.0014142531 0.0013563412 0.0022274388 -0.00023608806 -0.004531567
-0.0043094703 -0.00069827045 -0.002198579 0.0016731102 -0.00018280277 -0.0022933837 0.000774697 -0.0001999125

conv2.lin.weight f4 [128, 128]
00000000: 2f71 b03d c40f 8a3c 6555 1bbe 8082 41bd
00000010: 0986 05be 7c48 003e 58b7 f33a b405 e8b9
00000020: 79fe 0a3e 22aa 94bd 4992 52be ed12 003e
00000030: b49d 923d 252c ecbd 575e 193d fa17 ebbd
00000040: 1a84 e0bd 9549 13be c861 59bd 31c3 233e
00000050: 4b30 8dbd 2af0 0dbe c3e6 02be fa64 353e
00000060: d2b5 a03c 8ba5 fabd 85ee 5ebc b316 dfbd
00000070: 9b7e 363e 6179 57bd 45c9 0cbe c5cd c83d
00000080: b84c d7bd e2f5 9f3d 4ab4 0ebe 69be 91bd
00000090: 5f03 503c 786c 5e3d 04c4 09bd 5b59 e5bd
000000a0: 78f5 d43d 174c 2c3e b70b 2f3d 2d20 eabd
000000b0: 3ebe 1a3c 155a dfbd ebad 1a3c 9ce0 ac3d
000000c0: 785b 4bbe 255d cf3d 37d6 093e 2019 003e
000000d0: 534d c63d ae9b a53c b406 58ba d175 0a3c
000000e0: fe7c c53d 7ebb a2bd 3282 25be 7de3 f8bb
000000f0: 04b9 473b f3c8 29be 9358 c4bd 79ea 85bb
00000100: 9d1b 2bbe 1817 8d3d 38de 0cbe 037f 8dbc
00000110: 5e76 b9bd 6696 e43d acd2 04be 9287 e1bc
00000120: a53a 1fbe ab8f d63d 0082 babd 8ffb 52bd
00000130: eb68 cdbd e83e 023d aa55 283d 588b 223e
00000140: f456 f63d d489 9e3d 9149 99bd 45d7 20be
00000150: 0731 adbd b806 16be ce2b 52bd 428e 323d
00000160: 074e cc3d 6827 d1bd 8473 2b3e cb38 c8bd
00000170: 003b c83b 9d37 e0bd 648d 13bd 1341 483e
00000180: 1fdf d23d 4aa7 0fbe 5aa3 86bc 189f 6bbd
00000190: b4df 0bbe 4c43 d93b 818b 943c 3e86 973d
000001a0: f924 30be 0fe5 c33c 531f cabd 4520 5abd
000001b0: e63b 35bc bbb9 e2bd 8d87 3cbe 7180 853d
000001c0: 8ec1 cb3c 2e03 dd3d e88c 9d3d c3e8 853d
000001d0: 57ef 8d3d af38 e23d cf3c e43d c0a6 3b3e
000001e0: e3a2 f23d a0cf a7bd f2a2 27be 38dc dd3d
000001f0: 1f3a 5dbc d2cf c5bd a423 2ebc 1ced 5bbd
00000200: 3863 2e3d 1070 7d3d 4b45 0ebd 3430 ba3d
00000210: e9b4 c2bd 5b83 bfbd 2a16 a6bc 9078 64bd
00000220: 6845 b0bd f569 043e a8b7 c2bd c779 81bc
00000230: 08e3 b83d 29f0 853c 8cf1 e039 9b39 63bd
00000240: 42a8 ab3d ec25 f5bd ca59 be3a 59c7 21be
00000250: d8a9 813d f475 89bc 350d babd fb1a 043e
00000260: c3a3 d93d ad1e f23d eb95 34bb 545f 84bd
00000270: 2b47 2fbd 96bf 18be 01a6 e0bd 760f 0cbe
00000280: e81e 26bd 1e68 b1bc da08 a93d 81c5 9ebd
00000290: 1717 a1bc 294a 5bbd d107 033b cbd9 e3bd
000002a0: 8024 a1bd ce9b 143e f28e 283d b41b d43d
000002b0: 2d51 2d3d 6733 63bd db5e 7abd 9759 e33c
000002c0: c4a0 c6bd d196 083d 02fc 2ebd ac87 89bc
000002d0: c736 cebd f652 5cbe 588f 07be 0128 5ebc
000002e0: efe8 923d d7c5 df3c fef1 14bc b3f5 b03c
000002f0: f02a 36be 5b56 afbe 95c2 bbbd 5b1e 9b3d
00000300: 3696 7cbd cd32 aebc 1f2e c03d af70 3b3d
00000310: b35c 643d e7d8 b2bd 9c60 ff3d 41d3 e73c
00000320: 9901 d63d 810c 55be b109 e53d a081 83bd
00000330: baec 3f3e 99d4 15bd ef36 213d 08dc a2bd
00000340: c594 00be b33a 0fbe 7fe6 333e 1699 083e
00000350: 4437 a9bd d722 493e f4ef 2cbc 1099 413e
00000360: cd1b 183e 0ded 21be fb22 833d d88a b6bd
00000370: be68 c4bb 4fed 3bbe 6817 b23d 4309 fabc
00000380: 04e5 6b3d 3ad9 e73d 6a7e 1cbd 98d4 4cbd
00000390: b27c c33d 97b0 643c 34b2 b23d 8ec0 1ebe
000003a0: 3269 f03c 2558 15bd 9bef a43d fe7c acbd
000003b0: 1d4e 1a3e 8013 80bd dc35 94bd fdbc debc
000003c0: 788d c83d ac51 813d 3d4e 7cbc 7e50 6d3b
000003d0: b671 5bbd d497 37be 6b76 5c3d eea8 37bd
000003e0: db60 d63d df57 1cbe af29 3fbc 8069 413d
000003f0: 56f2 ed3d ee5e 223e b50a 8f3d 528d 5f3d
0.08615338 0.01685322 -0.15169294 -0.047243595 -0.13039412 0.1252765 0.0018594069 -0.00044254737
0.13573636 -0.07259013 -0.20563616 0.1250722 0.07158986 -0.115318574 0.037443485 -0.114791825
-0.109626964 -0.14383538 -0.053071767 0.15992428 -0.06893977 -0.13861147 -0.12783341 0.17714301
0.019617949 -0.12238606 -0.013606672 -0.108930014 0.17821734 -0.05260599 -0.13748653 0.098048724
-0.1051268 0.0781057 -0.13935962 -0.07116396 0.012696116 0.054302663 -0.0336342 -0.11198684
0.10398382 0.16825901 0.04273578 -0.11431918 0.009444771 -0.10905854 0.009440879 0.08441278
-0.19859111 0.10125188 0.13460623 0.12509584 0.09682717 0.020215835 -0.0008240745 0.008450941
0.09642981 -0.079459175 -0.16162947 -0.007595478 0.0030475268 -0.16580562 -0.09587207 -0.004086789
-0.16709752 0.068891704 -0.13756645 -0.017272478 -0.0905578 0.11161499 -0.1297099 -0.027530465
-0.15549715 0.10476621 -0.09106827 -0.051509436 -0.10029777 0.031798273 0.04109732 0.15873468
0.12028304 0.077411324 -0.07484735 -0.15707119 -0.08456617 -0.14651 -0.051311307 0.0435927
0.0997582 -0.10212594 0.16743284 -0.097764574 0.006110549 -0.109481074 -0.036023512 0.19556074
0.10296463 -0.1402866 -0.016435314 -0.05752477 -0.13659555 0.006630337 0.018132927 0.073986515
-0.17201604 0.023912935 -0.09869256 -0.05325343 -0.011061644 -0.110705815 -0.18411084 0.06518639
0.024872568 0.10791622 0.07692891 0.065385364 0.06930416 0.11045968 0.11144411 0.18325329
0.118474744 -0.08193898 -0.16370752 0.10833019 -0.013502627 -0.09658779 -0.010628615 -0.053692922
0.04257509 0.06187445 -0.03473405 0.09091225 -0.09507162 -0.09351226 -0.02027424 -0.05577904
-0.08606988 0.12931044 -0.09507686 -0.015805138 0.09027678 0.016349869 0.00042904576 -0.05547486
0.08381702 -0.11970124 0.0014522609 -0.15798701 0.06331223 -0.016779877 -0.0908455 0.12900917
0.10626938 0.11822257 -0.0027555178 -0.06463495 -0.04279248 -0.14916834 -0.10969163 -0.13677773
-0.04055682 -0.021656092 0.082536414 -0.07752515 -0.01966433 -0.05353752 0.0019993673 -0.11125525
-0.0786829 0.1451256 0.04115195 0.103568465 0.042313743 -0.055468943 -0.061125617 0.02775268
-0.09698632 0.033346955 -0.042720802 -0.016788326 -0.10069042 -0.21516022 -0.13238275 -0.013559342
0.07173335 0.027316017 -0.009090899 0.021601534 -0.17789817 -0.34245571 -0.09167973 0.07574149
-0.06166669 -0.021264458 0.09383797 0.04576176 0.055752467 -0.08732777 0.12469599 0.028298976
0.104495235 -0.20805551 0.11183489 -0.064212084 0.18742648 -0.036579702 0.03935903 -0.07952124
-0.12556751 -0.13987236 0.17568396 0.13339648 -0.08262494 0.19642197 -0.010555256 0.18906045
0.14854355 -0.15813084 0.06403156 -0.08913201 -0.0059939316 -0.18352245 0.08695871 -0.030521994
0.057591453 0.113207296 -0.038206495 -0.050007433 0.09545268 0.013958118 0.08725396 -0.15503141
0.029347036 -0.036461014 0.080535136 -0.08422278 0.1506886 -0.06253719 -0.07236835 -0.027189726
0.09792608 0.06314406 -0.015399513 0.0036211307 -0.05357524 -0.17929012 0.05382387 -0.04483884
0.104676925 -0.15267895 -0.011667653 0.047219753 0.116184875 0.15856525 0.06984464 0.054578133

conv3.bias f4 [128]
00000000: 45de e439 3cd9 3cb9 e734 07bb 87c4 f839
00000010: b835 8139 f8a5 d9ba b399 363a e6ed a9b9
00000020: 2aec 5eba d0c9 663a ac74 5438 01db 30b9
00000030: 9332 3eb9 268d 0639 1775 f03a 18e9 81ba
00000040: b79f f4ba 2ac9 493a 155d 2bba cf3b 943a
00000050: a828 9a3a d9ba f3b9 7b22 14b9 883b b8b9
00000060: 549c 993a 9335 473a 8e70 b1ba e01e fab9
00000070: 85b0 4239 f4f5 5d3a 436b 56ba 2bd1 1a3a
00000080: c478 ef39 0b8c 35ba ad9d 9d39 d36f 3239
00000090: 0882 afba 78f6 3b3b 33d3 69bb bcce 653b
000000a0: b4d1 ff3a 1691 d639 f7f0 283b 3838 c0b9
000000b0: 229c 7339 83d2 8aba bb31 65ba 590f cd37
000000c0: a95d 92b9 3d52 0eba a242 5e3a 1ee9 ef3a
000000d0: 493d b43a d944 71ba dfc2 01b7 7c9d 4bba
000000e0: 9bee 01bb 48f2 1e3b eded 1cba 006f 243a
000000f0: 0a0f 893a f79a f739 6b74 903a 9819 d53a
00000100: 7a2e ac3a 93ac c23a 9cd0 203a 2b64 bd38
00000110: cda5 56ba d570 aaba 6abf a43a 9d5e 4abb
00000120: b4a2 aa39 b774 19bb 2c00 c038 ba18 9438
00000130: ae4a 7739 1076 4a3b 9d95 79ba 637b 9c3a
00000140: e763 8cba c377 48ba fc64 243a 0c7b a2ba
00000150: c269 02ba d0a1 6e39 f2af beb9 bbdb 223a
00000160: cc00 be3a e544 093a 9e97 2439 db8f f13a
00000170: c20c 96ba 005d 5dbb d0d5 32bb 8e68 4d3b
00000180: 2df5 f2ba 3848 3439 374e 1e3a ff2b 923a
00000190: 7185 10bb 54c3 a139 a9b5 59ba fe28 01bb
000001a0: 7288 2138 bc60 3cbb 66f7 6eba 47dc 8638
000001b0: ac2d 983a c581 a639 83e3 133a f411 69b9
000001c0: 94f2 0d3a a767 b8ba 67b2 d13a 9ad6 65ba
000001d0: a675 913a e403 53b9 1b5e fc39 4e8b be3a
000001e0: 56f2 b539 c3f8 8dba 85a4 0aba c3c8 18ba
000001f0: 9bc3 83ba a451 0aba 091f e8ba bb1b b73a
0.00043653153 -0.00018010003 -0.0020630897 0.0004744867 0.0002464482 -0.0016605249 0.0006965652 -0.0003241144
-0.0008503819 0.0008803876 5.0653398e-05 -0.00016866253 -0.00018138652 0.00012831818 0.0018345442 -0.0009911386
-0.0018663321 0.0007697517 -0.00065370026 0.0011309328 0.0011761384 -0.00046487784 -0.00014127225 -0.0003513957
0.0011719563 0.0007599231 -0.0013537572 -0.0004770672 0.0001856704 0.0008467131 -0.00081794354 0.0005905802
0.0004567561 -0.000692547 0.0003006285 0.0001701706 -0.0013390193 0.0028680842 -0.0035678863 0.003506585
0.0019517452 0.00040925358 0.0025778392 -0.0003666298 0.0002323245 -0.0010591302 -0.0008743067 2.4445051e-05
-0.00027917072 -0.00054291246 0.0008478557 0.0018303727 0.0013751175 -0.00092036795 -7.734371e-06 -0.00077673024
-0.0019826058 0.0024253298 -0.00059863814 0.0006272644 0.0010456752 0.0004722697 0.0011021023 0.0016258238
0.001313641 0.0014852457 0.0006134601 9.03088e-05 -0.00081881584 -0.0013003597 0.0012569253 -0.0030879148
0.0003254615 -0.0023415515 9.1553055e-05 7.0617956e-05 0.00023583576 0.0030893125 -0.00095208903 0.0011938628
-0.0010710926 -0.00076472404 0.00062711514 -0.001239629 -0.00049748656 0.00022757729 -0.00036370713 0.0006212552
0.0014496087 0.00052364013 0.0001569674 0.0018429713 -0.0011447894 -0.0033777356 -0.0027288087 0.0031342837
-0.0018536203 0.00017193041 0.00060388766 0.0011152028 -0.0022052194 0.00030853844 -0.00083049625 -0.001970827
3.8512466e-05 -0.0028744182 -0.0009115845 6.430648e-05 0.0011610291 0.00031758673 0.0005641507 -0.000222273
0.000541487 -0.0014068977 0.0015998603 -0.0008767635 0.0011097684 -0.00020123977 0.000481353 0.0014537366
0.00034703565 -0.0010831583 -0.00052887975 -0.00058282557 -0.0010052802 -0.00052764476 -0.0017709445 0.0013970056

conv3.lin.weight f4 [128, 128]
00000000: 2cd7 64bd 1c98 04bd ae05 43bd 566b 5cbe
00000010: 4443 683c 9efb 543d 540d 28bc 3bf5 3dbe
00000020: abd3 babd 18ba 663d 6dc9 163e a8d3 19be
00000030: 2341 633d 5752 99bd 6a4b a1bc 98d7 25bd
00000040: 728c b2bd 6907 253d 8c18 2b3e 8c98 7cbd
00000050: 31ee 4c3c e11f ac3d d557 2ebc 56c0 5539
00000060: f193 413e 3204 4a3d 4dcc 083d e334 0dbd
00000070: 0c75 5c3d b4c3 83bd e055 8cbd 8577 063e
00000080: a2b7 063b c686 80bd ef8a 793c bacb 8b3c
00000090: f2f6 acbd 614a fe3b a48f d03d 2bc8 0dbe
000000a0: 44be d73b 70bb 143e dcb8 e73d 8976 173e
000000b0: 9ed7 12bc a6db 2abe 7a63 9e3c fb54 1cbe
000000c0: 1f7d 813d e997 8fbd 8e1b 283d 132a c2bd
000000d0: f448 debd aa87 d43b 45da a1bc 2d0d bbbc
000000e0: eddd 553e f9a6 833d 0ecb 923d 6729 3a3e
000000f0: b557 3d3e 5664 443c e298 1dbe 969e 50bc
00000100: c32f a4bd f13a a73d f768 563d 847e 063d
00000110: 6766 9d3c dec8 783c b55d 903c 9dd2 6a3d
00000120: 438b 0cbd 81a3 353e fee9 f0bd d208 3f3e
00000130: 7818 5dbd 2430 c53d a842 f7bd 311a 093c
00000140: 5ac3 e73d 6e40 fc3b 472d aeba 129c e23d
00000150: 72e4 80bd 9ec1 b4bd eeac 47bb ac49 d0bd
00000160: 9060 efbc b692 043e b4d0 903b b6df bbbd
00000170: 95a4 ff3d 9d24 983c ee59 45bd 8a2d 933d
00000180: dcfa b1bd ade6 373d aa62 4dbe 8f1d 80bd
00000190: 6967 36be cda8 c23d fd9f 0c3d f80c cd3d
000001a0: 901f afbd 7308 32bd 251b 34bd a47c 143e
000001b0: 89fb 823d 97b6 2b3c 4e57 cd3c 914d 17bc
000001c0: ef93 6bbc 9de7 183e 3580 123e e906 143e
000001d0: 54be 853d 65bf 083e 51ee c73c 7e82 7bbc
000001e0: 6cf4 ba3d 2894 1e3d 1832 4abd 1d9a 88bd
000001f0: 3801 223c 00a2 fd3d c27c 21bd 2973 593e
00000200: 2472 c6bc b918 f73d 176d cbbc 72c5 fb3d
00000210: c610 4cbd 486b 613e 6aa9 963c 553e e93d
00000220: 372a 83bd 438d b63c 60dd 963d cde0 3abc
00000230: 8845 febd 9db7 b0bd 0938 a43c b5a3 413d
00000240: b333 8b3d ea2f f5bc c80d f0bd 29bd 353d
00000250: 133a 3b3e 8158 013e 4e58 cc3d 3f20 933a
00000260: 1326 0dbd 0398 153e 62ed 94bd 6fce e73d
00000270: 43d8 07be 80d6 94bd f1a0 51be ba23 40bd
00000280: 694d 173d 34c8 1e3e 888f be3c b695 253c
00000290: ba74 42be 4930 103d b7a0 603e d90b 743d
000002a0: 94a3 45bc 3ab4 eb3a 5e18 e53d 5f42 423e
000002b0: 33c6 bd3d f95c d6bd b5a8 363d e876 c83d
000002c0: 0684 103e b73e 753d 7c3a 4cbd 056d 97bd
000002d0: 940c b13d b5c2 42bd 7447 d9bd 9b00 293d
000002e0: 0d90 583d 8924 8cbd d01f b2bd 6e75 7cbd
000002f0: 3f10 efbd 9344 d8bd a5c0 a23d 46cf 6ebc
00000300: d341 2b3e 645c 11be 0a3e 37bc 762e 423e
00000310: 6bbf 87bd edad 893d 6cdd bebc c03c a7bc
00000320: 526e 98bc 819b 90be 90c3 573e ad44 033d
00000330: 753c a3bb 8c03 0a3e cd2a 6fbd 2fee d6bd
00000340: 90c4 2fbc c961 41be 238c a0bd a8b6 d83c
00000350: 9eb0 673d 10f7 e6bc 29c3 fbbc fbe9 aa3c
00000360: c639 b23d 04ad 943a 09f9 3bbd fc6e 80be
00000370: 13a3 77bc e90f 1dbe 810c 543d 3bc7 9ebd
00000380: 4208 89bd c71f 2b3c 25fb fdbc 1fda 1dbe
00000390: cdbc 55be 46b9 443d 5d76 083e 1dde aaba
000003a0: 2293 673d 7aae 9b3d 2389 01be 5258 09be
000003b0: d00f b33c 4fe9 80bd 7939 3f3d a82f 27bd
000003c0: ee04 5c3c 7a3a 94bd 6a09 35be 7888 34be
000003d0: 7fd3 cebd d35a bf3b 4d83 c3ba a87c 98bc
000003e0: c0ff 15be a0e8 08bd 19d1 ce3d 8bdd c1bd
000003f0: e17a 003e c1c1 43bc 6273 18ba 2a97 0ebd
-0.055869266 -0.032371625 -0.04761284 -0.2152532 0.014176194 0.051997773 -0.010257084 -0.18550579
-0.09122404 0.056329817 0.14725275 -0.15022147 0.05548204 -0.07486408 -0.01968928 -0.04048881
-0.08718194 0.04029027 0.16708583 -0.061668918 0.012507961 0.08404518 -0.010641058 0.00020384914
0.18904091 0.049320407 0.03339796 -0.034474265 0.053822562 -0.06433812 -0.06852317 0.1313153
0.002055623 -0.06275706 0.015230878 0.017064918 -0.084455386 0.0077603315 0.10183647 -0.1384589
0.0065839607 0.14524627 0.11314556 0.14791311 -0.00896254 -0.16685352 0.019334543 -0.15266792
0.06322693 -0.070113964 0.041041903 -0.09480681 -0.108537585 0.006485899 -0.0197574 -0.022833431
0.20885439 0.06428332 0.07167636 0.18179856 0.18490489 0.011986813 -0.15390351 -0.012733122
-0.08016922 0.08165539 0.052346196 0.0328355 0.019213868 0.015184609 0.017622808 0.057329763
-0.034312498 0.17738153 -0.117633805 0.18655708 -0.053978413 0.09628323 -0.120732605 0.008368061
0.11316557 0.0076981103 -0.001328864 0.11064924 -0.062935725 -0.08825992 -0.0030468064 -0.10170302
-0.02922085 0.12946591 0.0044194106 -0.09173529 0.124825634 0.018572146 -0.048181467 0.0718642
-0.08690426 0.044897724 -0.20057169 -0.06255638 -0.17812885 0.095048524 0.034332264 0.10012239
-0.08550942 -0.04346509 -0.0439712 0.14500672 0.06395633 0.0104805445 0.025066044 -0.009234802
-0.014378532 0.14932103 0.1430672 0.14455761 0.06530443 0.13354261 0.02440563 -0.015350936
0.09128651 0.03871551 -0.04936418 -0.0667002 0.009887986 0.12384415 -0.03942562 0.21235336
-0.024224348 0.12065262 -0.024832292 0.12293519 -0.049820684 0.22013581 0.01839133 0.11388842
-0.06404536 0.022284156 0.07366443 -0.011406136 -0.12415606 -0.086287715 0.02004625 0.047275264
0.0679697 -0.029930074 -0.117213786 0.04436985 0.18283872 0.12631418 0.0997778 0.001122482
-0.03446014 0.14608769 -0.0727184 0.11318671 -0.13266091 -0.07267475 -0.2047155 -0.04690907
0.03693906 0.15506059 0.0232618 0.010106495 -0.1898984 0.0352023 0.21936308 0.05958161
-0.012062926 0.0017982789 0.11186288 0.18970631 0.09266319 -0.10466952 0.044594485 0.097883046
0.14112863 0.059874263 -0.049860463 -0.07393841 0.08644977 -0.04754897 -0.10609332 0.041260343
0.052871753 -0.06842906 -0.08697474 -0.061635427 -0.116730206 -0.105599545 0.079469 -0.014575785
0.16724329 -0.141954 -0.011184225 0.18963036 -0.06628307 0.06722627 -0.023298942 -0.02041471
-0.018607292 -0.2824364 0.21070695 0.032047916 -0.0049815723 0.13477916 -0.058390427 -0.10494649
-0.0107280165 -0.18884958 -0.07839229 0.026454285 0.05656492 -0.02819398 -0.030732708 0.020863524
0.08702426 0.0011343067 -0.045891795 -0.25084674 -0.0151145635 -0.153381 0.051769737 -0.07752844
-0.06691028 0.010444588 -0.031003544 -0.15415238 -0.20872803 0.048028253 0.13326402 -0.0013036166
0.0565368 0.07601638 -0.1264997 -0.13412598 0.021858126 -0.062945 0.04668567 -0.040816933
0.01342891 -0.07237716 -0.17679372 -0.17630184 -0.100989334 0.0058396845 -0.001491645 -0.018614128
-0.14648342 -0.033424973 0.10098476 -0.09466084 0.12546875 -0.01194805 -0.0005815533 -0.03481213

conv4.bias f4 [64]
00000000: 1b56 c33a 384e 07bd 6b73 d3bb cd74 293a
00000010: cf4d 9c3c bc93 eebb 3681 543c 02f8 603c
00000020: 5c09 f23b 8bc4 7d3c 9172 bebb f42c 92ba
00000030: 371c 4fbc b26c 193c c3e9 1839 8548 d83a
00000040: a460 4a3c d101 f739 ce0f 11bb 7b32 1cbb
00000050: c495 beba ebfa ee37 9bb4 15bc 6ae8 7fbc
00000060: 0db0 8c3c 9f63 74bc 5833 933c bf88 efbb
00000070: 3d01 9dbc 21f5 56bc 9ee2 b6bc 2aca adbc
00000080: b0c9 953b 8a0b 4fbc 1e04 1a3a 1688 573b
00000090: 403f 3f3c 4e35 443c 0e6a 2d3c fb03 3d3c
000000a0: 7794 79bc e1f3 c53c 0d2c 7fbb a6ee f9bc
000000b0: a11b ad3b 61b9 333c 54c1 883c 720f 193a
000000c0: ac6b 8cbc 06d7 1b3a 54a9 29bc 8fc4 3cba
000000d0: 484e e2bb d510 9cbb ef17 cabb 199e 71bc
000000e0: 4966 833a 112a 4d3c a240 803c 3d27 db3b
000000f0: ecef 23bc f6ff 7eba e822 af3b 9ae7 ea3c
0.0014902981 -0.03303358 -0.006452968 0.0006464243 0.01908007 -0.007280795 0.012970259 0.013731005
0.0073863696 0.015488754 -0.005811997 -0.0011152313 -0.012641004 0.009364294 0.00014582933 0.0016501105
0.0123521425 0.00047112865 -0.0022134664 -0.00238338 -0.0014540483 2.8488654e-05 -0.009137298 -0.015619377
0.017173791 -0.01491633 0.017968819 -0.0073100026 -0.01916563 -0.013119967 -0.022324856 -0.021214563
0.004571162 -0.0126370285 0.00058752473 0.003288751 0.011672795 0.011975599 0.010584367 0.011536594
-0.015233151 0.024164142 -0.0038936168 -0.030509304 0.0052828346 0.010969491 0.016693749 0.00058387883
-0.017141186 0.0005944822 -0.010355312 -0.00072009204 -0.0069063045 -0.0047627487 -0.006167404 -0.014747166
0.001002499 0.012522236 0.01565582 0.006688027 -0.010005932 -0.0009727472 0.0053447373 0.02867489

conv4.lin.weight f4 [64, 128]
00000000: c6d9 1cbe 99d4 563e 6138 363e 077f 25bd
00000010: dc58 16bd 540d 5d3e bc8c bf3d 5a7b 4dbd
00000020: 68e5 ea3d e5c3 0bbe 230a f6bb 9723 7c3c
00000030: 02f2 b13d 6d68 023e 5e9c ecbc 52b6 d03d
00000040: 47da dc3d b3db 16be edaa d5bd 308e 44bd
00000050: d2a9 27be cdbc 0e3e 21ee 7bbd a52f 033e
00000060: efaf a43d b29d d73d 7932 913c 4925 173e
00000070: cfea 54bd 3f0c d7bd b46a 85bd 15b6 7abd
00000080: f1d5 21bc 2e07 06be 8581 b63d 7982 313e
00000090: 9b0d 14be 6257 27be 855b d23d 4f00 f33d
000000a0: 72fb a43d 1d9e bd3d bad8 423e 3c56 e3bd
000000b0: 6399 a3bd 3093 0b3e 35d1 07bc d200 583d
000000c0: 0b3c 61bb a4a3 ba3d 1b5e 4dbe 6e46 90bd
000000d0: 60bb dfbd 53be e7bd 934d b7bd 3bf3 1ebe
000000e0: c6ae 47be 8d02 3e3e f266 643d 5284 a2bd
000000f0: cdb9 2c3c eca4 5ebd dea9 12bd d664 28bb
00000100: e79d 923d 18a0 513e e1ba 513e a9ea 83bd
00000110: 9b66 613d e7f5 d73d bc06 16bd aac7 893d
00000120: aa6a 703d 5a5b 473d 991f efba 1439 c23d
00000130: 4fee acbd 932d bebd 302d c8bd 5b25 1fbe
00000140: 16f9 f13d 99e5 a73d 1c9f 25be 00e5 c43d
00000150: e6fd 28bd a3d6 91bd a827 d03d 2138 a6bd
00000160: 8826 03be e6ee e5bc e683 d2bd d12e eebd
00000170: e782 28be bdfc 43be 5380 bdbd b790 49bc
00000180: a7ec 1cbc f27f febd 70cc 30be 2c85 82bd
00000190: 18e7 26be 10bd 023e 3820 233d 0630 19bd
000001a0: bbc8 53bd 4b7d febc 2685 713c 7da2 ae3d
000001b0: b4e4 02be 3860 2ebe 33b8 41be b43b 8a3d
000001c0: f578 01be f9b4 50be d4d7 163e f1b6 81bd
000001d0: 38df 3dbe 5b76 d33c afbf 91bb 04bf b43d
000001e0: 3419 9dbe 1416 803d 24f6 583c a237 a33d
000001f0: 9cfe 2abe 7ea5 4d3d cf3b 063e ef2f 1b3d
00000200: 5471 19bd a102 c3bd 0b28 1bbe afc0 9f3d
00000210: d479 06be b540 733e 3912 0b3d bbf9 c4bc
00000220: 1ea3 21be 7feb 2c3e 28d1 f53b 9fec 523e
00000230: e26b f8bd 069d 623e 0eb7 423e 44bb 0dbe
00000240: 412b 46be 97f0 b4bd fd55 643d fb15 96bd
00000250: e162 693c 68ba 22be 334c 32bc a53b 893d
00000260: 6ca8 0fbe f1a9 a9bd ca58 483d 2e74 923d
00000270: c7ca 9b3c 5948 f9bc 4991 4cbd a412 dc3a
00000280: 9cd4 073c 0307 a4bd b9f8 ad3d c92d 34bd
00000290: 773a 8cbd 47a7 ae3b 9e1f 67bc 1f19 29be
000002a0: 4a50 cdbd 1787 b83d bfa8 ca3c a0e7 033e
000002b0: 6dd1 a9bc f96a 83bc 7b7e 563d 5f67 193e
000002c0: cae4 ef3d e7cd e7bc bebc 3a3e dbe9 53be
000002d0: 1204 e3bd c61c d8bb 5b9d f9bd 0327 2dbd
000002e0: 750e 62bd ff43 c338 63fc 0abd 7a93 283e
000002f0: 41a2 abbd 6c8c bd3d 0074 9b3c ebd9 ff3d
00000300: 4424 713d 6181 ff3d 26ad e43d 8254 2abe
00000310: e61e babd b871 113e a665 07be 5fe1 dd3d
00000320: 7ac7 a53c 64bf 8b3d b231 223e 5783 aabd
00000330: 3928 123e 40cf 5f3e 86c6 283d 6aa5 0cbe
00000340: b995 523d 4f0a 1e3e e537 3dbe 4c4d ffbd
00000350: ade9 d73d 621f d339 2f30 b53d da2f efbd
00000360: 794f 083e e647 42bd f649 0a3e c683 23b9
00000370: 03d4 ddbd 5097 cc3d 9983 a03c 43a2 1abe
00000380: cff3 833d 683d f3bd ee7b babd 4b6d e73c
00000390: d956 213d 0319 3ebe 2673 72bc 666f c2bd
000003a0: 41fe da3d daf6 aebd 1b14 c2b8 c920 e53d
000003b0: 1694 a1bd fd28 e6bd eb13 943d 688d 2d3d
000003c0: 1eec fa3c a8a4 b8bd 9e3e e7bc 7343 d93c
000003d0: 86bd 92bd 7a00 77bd edc0 7b3e 7a8e 0f3d
000003e0: 6d9f 18be 23a7 d5bc 5154 5e3b 5c36 96bd
000003f0: 1ab6 37bd e63d 23be e847 f8bd 50e7 fb3d
-0.15317449 0.20979537 0.17794944 -0.040404346 -0.036705837 0.21587116 0.09353015 -0.050166465
0.11469537 -0.13648947 -0.0075085326 0.015389345 0.086887375 0.12735148 -0.028883155 0.10191025
0.107838206 -0.14732246 -0.10432992 -0.047987163 -0.16373375 0.1393921 -0.061506394 0.12811144
0.08041369 0.10528125 0.017724263 0.14760317 -0.051981743 -0.10500383 -0.06514493 -0.061208803
-0.009877668 -0.13088676 0.08911423 0.17334928 -0.14458315 -0.16341928 0.10271362 0.11865293
0.08055772 0.09258673 0.19027987 -0.11100432 -0.079882406 0.13630366 -0.008289625 0.052735157
-0.0034368064 0.09113243 -0.2005543 -0.070446834 -0.10924411 -0.11315598 -0.08950343 -0.15522473
-0.19500265 0.1855566 0.05576224 -0.07935394 0.010542345 -0.0543565 -0.03580653 -0.0025694869
0.07159024 0.20471227 0.20481445 -0.06441242 0.055029493 0.10544949 -0.036627516 0.06727536
0.058695473 0.048671104 -0.001824367 0.09483543 -0.08443891 -0.09286036 -0.09774244 -0.15541594
0.118150875 0.08198089 -0.16173977 0.09613991 -0.04125776 -0.07121017 0.10163814 -0.081161745
-0.12807667 -0.028068017 -0.10279064 -0.11630023 -0.16456185 -0.19139381 -0.092529915 -0.012302569
-0.009577907 -0.124267474 -0.17265487 -0.06373057 -0.16299093 0.12767434 0.039825648 -0.037399314
-0.051705103 -0.031065604 0.014741218 0.08527086 -0.12782556 -0.17028892 -0.18917923 0.06749669
-0.12643798 -0.20381536 0.1473077 -0.063337214 -0.18542182 0.025813272 -0.0044478993 0.08825496
-0.3068329 0.06254211 0.013242278 0.079695955 -0.16698688 0.050206654 0.13108753 0.03788751
-0.037461594 -0.09521986 -0.15151994 0.07800423 -0.13132411 0.23755153 0.033952925 -0.024044862
-0.1578488 0.1688671 0.00750174 0.20598076 -0.12129952 0.22130212 0.19015142 -0.13840967
-0.19352438 -0.08834951 0.055746067 -0.07328411 0.014244766 -0.15891421 -0.010882425 0.067008294
-0.14029092 -0.08284367 0.0489128 0.07151066 0.01901759 -0.030430006 -0.049943242 0.0016790223
0.008290436 -0.0800915 0.08494706 -0.043988977 -0.06847089 0.0053299996 -0.014106659 -0.16513489
-0.100250795 0.09010141 0.024738668 0.12881327 -0.020729745 -0.01604222 0.052366715 0.14980839
0.1171356 -0.028296424 0.18236062 -0.20694678 -0.11084761 -0.006595227 -0.12188216 -0.042273533
-0.05518957 9.31099e-05 -0.0339321 0.16462508 -0.08380557 0.09255299 0.018976212 0.124927364
0.058872476 0.12475849 0.11165838 -0.166338 -0.09087925 0.14203537 -0.1322237 0.10834002
0.02023672 0.06823614 0.1583927 -0.08325832 0.14273156 0.21856403 0.04120495 -0.13734975
0.051412318 0.1543362 -0.18478353 -0.12465915 0.10542617 0.00040268438 0.08847081 -0.11679049
0.13311566 -0.04743185 0.13504776 -0.00015593981 -0.10831454 0.09989798 0.019594 -0.1510096
0.06442987 -0.11876947 -0.09105669 0.028250357 0.039389465 -0.18564229 -0.014797961 -0.09493904
0.10693026 -0.08543177 -9.254386e-05 0.11187894 -0.07889573 -0.11238287 0.072303616 0.042371184
0.030630168 -0.09015781 -0.0282281 0.02652142 -0.07165055 -0.06030319 0.24585314 0.035047986
-0.14904566 -0.026080674 0.0033924768 -0.07334587 -0.0448514 -0.15941581 -0.1212309 0.12299979

bn1.weight f4 [128]
00000000: 066a 713f f065 7b3f 8f07 823f c7a9 713f
00000010: a6fc 8e3f 5ca2 743f 0045 853f be94 643f
00000020: 05c9 883f d39f 673f cb38 833f 9d07 693f
00000030: f125 8b3f d859 793f c7a1 7b3f ef35 713f
00000040: ee55 7e3f cf4b 6f3f 066d 773f 0e01 843f
00000050: 4a1a 7e3f 0baa 6a3f 58e8 5d3f b232 7e3f
00000060: 9c62 723f 1742 8a3f 0221 663f aa44 613f
00000070: 8c39 883f 31c1 893f 4ac6 633f b5df 793f
00000080: c12f 853f 71bc 693f 8ce3 673f 473c 893f
00000090: 6d47 783f fa32 733f df1e 733f b33d 863f
000000a0: cbc9 713f c041 783f 45b5 883f a4d5 823f
000000b0: a61f 743f 54e2 673f 6130 5b3f e4c2 6a3f
000000c0: c2ba 6c3f cb0f 683f 0a18 8d3f 53f4 8e3f
000000d0: e617 873f a8d5 833f f2b1 8e3f 8f4d 713f
000000e0: 59d1 6f3f f38e 6d3f 3be8 623f cbc7 6e3f
000000f0: 3ff7 793f 3099 8d3f e102 6d3f 6001 893f
00000100: ca29 6e3f 2072 853f fe78 673f 58ec 863f
00000110: f29e 7d3f bffe 633f ff6d 7b3f 03fc 8d3f
00000120: 7ad3 843f e810 983f 32d8 763f ad4f 783f
00000130: fdb8 7f3f 2d93 7e3f 20d7 823f 9313 813f
00000140: 9146 6a3f 5b0e 973f 510c 953f 2210 743f
00000150: 5ec5 783f 9fce 7e3f deca 5c3f 602e 7a3f
00000160: 8948 843f 1b14 853f 9352 713f 1e4a 8b3f
00000170: c161 653f 87ab 653f 4787 513f c50e 8d3f
00000180: f4f6 603f 3a64 633f 1368 6b3f 62f8 633f
00000190: d79d 6e3f a72a 8f3f 29b3 6e3f 8ba2 903f
000001a0: 1ac4 643f bb00 753f be45 603f f621 683f
000001b0: 6724 6e3f c4cc 833f 9268 6d3f b645 7c3f
000001c0: f559 723f e7c6 623f ac36 893f a19f 733f
000001d0: adc6 783f bcde 753f b216 653f d9ea 853f
000001e0: ed4f 8f3f f683 863f d7dd 713f 2433 6f3f
000001f0: e04a 743f fa05 8e3f 30ca 6d3f 1fb0 7f3f
0.94302404 0.9820242 1.0158557 0.94399685 1.1170852 0.9556024 1.0411682 0.8928946
1.0686346 0.9047825 1.0251707 0.9102724 1.0870954 0.97402716 0.9829373 0.9422292
0.9934987 0.9347505 0.9665073 1.0312822 0.99258864 0.91665715 0.86682653 0.99296105
0.94681716 1.0801419 0.89894116 0.879954 1.0642562 1.0762082 0.8897444 0.97606975
1.0405198 0.91303164 0.90581584 1.072152 0.9698399 0.9499966 0.9496898 1.0487579
0.94448537 0.96975327 1.0680319 1.0221448 0.9536079 0.90579724 0.85620695 0.9170363
0.9247247 0.906491 1.1022961 1.1168312 1.0554168 1.0299578 1.1148055 0.9425897
0.93678814 0.9279625 0.88635606 0.9327361 0.9764289 1.1062374 0.9258252 1.0703545
0.93032515 1.0425453 0.90418994 1.0540876 0.99070656 0.89060587 0.98214716 1.1092533
1.0377038 1.1880159 0.9642364 0.96996576 0.99891645 0.9944332 1.0221901 1.0084099
0.91513926 1.1801256 1.1644384 0.95337117 0.9717616 0.9953403 0.8624705 0.9772701
1.0334636 1.0396761 0.94266623 1.0881994 0.89602286 0.89714855 0.8184704 1.1020132
0.8787682 0.8882481 0.9195568 0.8905088 0.93209594 1.1184891 0.93242127 1.1299604
0.8936173 0.9570424 0.8760642 0.9067682 0.93024296 1.0296865 0.92737687 0.9854387
0.94668514 0.8858475 1.071981 0.9516545 0.97178155 0.9604299 0.89487755 1.0462295
1.1196266 1.0509021 0.94479126 0.9343741 0.9542675 1.1095574 0.9288664 0.99878114

bn1.bias f4 [128]
00000000: c4cb 22be d267 60bd 4f99 efbc 06b5 3dbd
00000010: 9416 d33d 0576 74bd 8bb9 ddbd c5fd 54bd
00000020: d674 92bc 89ff 12be f0f2 90bd fb7a 2bbd
00000030: 14b1 33bd 085a 86bd aec2 38be bb8d 1ebd
00000040: c935 68bd 8813 31bd 9849 babd 90a8 4ebc
00000050: 1966 a7bd 2e7c 9cbd b992 dfbd dbc2 d2bc
00000060: 0d0f 5bbd 9e3d 0fbd 06d6 cdbd bed6 01bd
00000070: 8ba6 4e3d 137b 74bd d033 c4bc a13a 323c
00000080: 8cfd 023e f178 2abd ae35 f2bc 3256 29bc
00000090: 3899 07bd 8d7f adbc 3fd5 69bd e152 243d
000000a0: e448 32bd c620 1a3c 39d0 84bd 36ec db3c
000000b0: 988b 03be 12d2 d2bd 24ac a9bd c778 0abe
000000c0: b1e3 26bc 6cf9 d7bd 3904 f33c 21fe cb3d
000000d0: 4a31 dfbb 768a 813d 66c4 b73a 27ae e4bd
000000e0: 3938 e5bd 99f3 b0bc f479 0cbe a027 65be
000000f0: 5dd6 99bc e2a7 903d cc1b 10be 50bb 4fbb
00000100: bc70 f2bd 6776 39bd 392e 49bd b509 e3bd
00000110: 0f1b 05bd 524a 0dbe cd0f fbbd af14 e4bc
00000120: 24fa cabb 178a 093e c6de d5bd 7cb9 97bc
00000130: a5ce 1abe 46ee 93bd 81d7 fcbc 329e b1bd
00000140: d2aa c3bd 2bfc e9bd 6602 df39 2316 97bd
00000150: cdd3 9cbc 2fdf 24bd bfb2 6fbd c6e0 f8bc
00000160: e93c 86bd 46e8 2cbd 1c69 71bd 4d26 9e3d
00000170: a21f d3bd c629 01be f447 3bbe 0f43 e6bc
00000180: 80ef acbd 1a0b c0bd b0d7 9abc 9650 a5bd
00000190: fd77 95bd 5f7e 89bd 9bd9 30be 4966 4ebd
000001a0: 9e4f bfbd 37aa 71bc 4f45 adbd c0cb 3dbd
000001b0: 2db0 f4bc ecd7 9fbd 0212 b5bd 015a b6bd
000001c0: 6605 d0bd 296a 90bd 632e c2bd d936 85bd
000001d0: e271 1abd 4004 a2bd e383 f7bd 4295 3dbe
000001e0: e0d8 123e 78ce a6bd ce3c 73bd c044 83bd
000001f0: d52b b8bc b91e 87bc 1da3 d6bd e9c8 11bd
-0.15898043 -0.05478651 -0.029247908 -0.046315216 0.10307041 -0.059682865 -0.10826405 -0.051999826
-0.017877977 -0.14355291 -0.07077587 -0.04186533 -0.043870047 -0.06560141 -0.18043014 -0.038709383
-0.05669192 -0.043231517 -0.09096068 -0.012613431 -0.081737705 -0.07640873 -0.10916657 -0.02572768
-0.05348115 -0.034970872 -0.10050587 -0.031698935 0.050451797 -0.059687685 -0.023950487 0.010878236
0.12792033 -0.041619245 -0.029566612 -0.010335492 -0.033105105 -0.021178985 -0.057088133 0.040118102
-0.043526545 0.009407228 -0.06485028 0.026846033 -0.1284622 -0.10293974 -0.08284786 -0.13522635
-0.010186122 -0.1054562 0.0296651 0.099605806 -0.0068112956 0.063252375 0.0014020323 -0.111660294
-0.11192364 -0.021600531 -0.13718396 -0.22378397 -0.018778974 0.07063271 -0.14073104 -0.003169734
-0.118379086 -0.045278933 -0.049116347 -0.11085836 -0.03249651 -0.13797882 -0.12258873 -0.027841894
-0.00619437 0.13431583 -0.10442881 -0.018521063 -0.15117891 -0.072231814 -0.030864479 -0.086727515
-0.09554066 -0.1142505 0.00042535661 -0.07377269 -0.019143963 -0.040251907 -0.058520075 -0.030380618
-0.065545864 -0.0422137 -0.05893813 0.07722149 -0.10308768 -0.12613592 -0.18289167 -0.028108148
-0.084441185 -0.093771175 -0.018901676 -0.08072011 -0.072982766 -0.067135565 -0.1727051 -0.050390515
-0.09341358 -0.014750055 -0.08460485 -0.04633689 -0.029869163 -0.07804856 -0.08841325 -0.08903886
-0.1015728 -0.070514984 -0.09481504 -0.06504602 -0.037706263 -0.07910967 -0.12085702 -0.18513969
0.14340544 -0.081448495 -0.05938416 -0.064095974 -0.022481838 -0.016494142 -0.1048033 -0.035591993

bn1.running_mean f4 [128]
00000000: 76df 1fc2 371e 8a42 2adf 0dc1 6619 58c2
00000010: eb79 0f42 8871 a7c2 5e75 89c2 a6fa 7141
00000020: e09a bec1 7f20 ac42 4a88 8ac1 4498 57c2
00000030: 7a07 b841 6140 ddc1 1686 7cc1 1582 c942
00000040: 1cd9 1ec0 9b1b 4fc3 d1d2 18c2 6e81 0041
00000050: 5f69 ff40 1208 9fc2 a0ad e9c2 484d 8442
00000060: 3252 d5c2 4c19 3542 acb9 cac1 ba80 cec1
00000070: 9078 3940 f0f3 2a42 eca8 f042 fceb 8142
00000080: b044 dbc1 b2ed e5c1 18c9 c7c0 ca40 5c41
00000090: 6d26 c642 d746 3542 c605 11c1 5c08 9cc2
000000a0: 7eb8 dbc2 b2fc 88c1 de9c eabf 6402 f7c1
000000b0: 7732 f541 18d1 9942 04d1 4e42 c7e1 92c1
000000c0: 0c24 1cc2 f2b9 d742 39f4 46c1 b5d0 f240
000000d0: 9f85 9c42 32ed 0742 4915 3dc0 30ad 2a41
000000e0: 92ea 09c3 306b b1c2 d6f0 c142 a07d b642
000000f0: c2b4 0ec2 3f70 67c1 a404 a441 5d30 77c1
00000100: ecc3 2fc2 90e3 a6c0 4c99 2243 60f9 3ec1
00000110: b1e2 19c3 ffb6 3442 b9da 1740 88c7 4a42
00000120: 9d91 97c1 2eab d83f 0c43 edc1 e493 8141
00000130: 8e7a 0cc2 88d1 d5c1 1e51 00c2 e151 f341
00000140: dd62 58c2 4277 fec0 9731 1541 dba9 5d42
00000150: 3ac7 09c1 624a 9641 9381 9e42 c4ad 2dc3
00000160: b78d f1c1 f33c a4c2 3c4f b7c1 7bbe 62c1
00000170: 8f60 e8c2 6771 6642 aefe 3442 b79c 8540
00000180: 54b7 e342 8286 8f42 8747 a1c2 847a 4a43
00000190: 3303 9342 4892 0ac1 0a59 5241 1ca1 0bc2
000001a0: 0c6c 903f c4d9 38c2 f5f1 7fc2 1882 8fc2
000001b0: d7df 84c1 53cb 16c1 b528 ee42 7501 a742
000001c0: 4d8b b9c2 9fde 9242 f5d1 1040 c996 3ec2
000001d0: 8fb9 13c2 0cc7 e0c2 8007 dd41 b1d5 09c1
000001e0: 22b8 a341 3f81 a7c1 644d 3143 90ae 1242
000001f0: cbb5 10c3 4f45 c23f 5e4b 90c2 2c5f 86c2
-39.968224 69.05901 -8.866983 -54.024803 35.86906 -83.72174 -68.72923 15.123693
-23.825623 86.06347 -17.316547 -53.898697 23.00365 -27.656435 -15.782736 100.75407
-2.4820013 -207.10783 -38.205875 8.031599 7.9816127 -79.51576 -116.83911 66.15094
-106.66054 45.274704 -25.34066 -25.812855 2.8979836 42.73822 120.329926 64.96091
-27.408539 -28.741062 -6.2432976 13.765818 99.07505 45.31918 -9.06391 -78.01633
-109.86034 -17.123386 -1.8329122 -30.876167 30.649641 76.90839 51.704117 -18.360243
-39.035202 107.863174 -12.434625 7.587977 78.26098 33.981636 -2.9544241 10.667282
-137.91629 -88.70935 96.97038 91.24536 -35.67652 -14.464904 20.502266 -15.449307
-43.94133 -5.2152786 162.59882 -11.935883 -153.88551 45.178707 2.3727248 50.694855
-18.9461 1.692724 -29.657738 16.197212 -35.119682 -26.72731 -32.079216 30.41498
-54.096546 -7.952058 9.324607 55.415874 -8.611139 18.78632 79.253075 -173.67877
-30.194197 -82.11904 -22.913689 -14.171504 -116.18859 57.610744 45.24871 4.17538
113.85806 71.76271 -80.6397 202.47858 73.50625 -8.660713 13.146738 -34.907333
1.1282973 -46.21266 -63.986286 -71.75409 -16.609297 -9.42464 119.079506 83.502846
-92.77207 73.43481 2.2628148 -47.64725 -36.93121 -112.38876 27.628662 -8.614671
20.464909 -20.938108 177.3023 36.67047 -144.71013 1.5177401 -72.1472 -67.18588

bn1.running_var f4 [128]
00000000: 6e6b 0e45 4f4c 4e44 da8d 2c43 2c7e 1643
00000010: 9525 6742 2397 9745 c20f 4145 e6a0 5c45
00000020: b2cc 8942 ff1a 4e45 af00 1043 ab9b 8444
00000030: 6544 2d44 d79c 9145 fe88 2c45 951d 4b43
00000040: 579d 4443 dac7 7a44 c268 3144 14fb 5b43
00000050: d3b3 9c43 d7a3 7b45 c364 fa44 3308 9b43
00000060: 2b50 db45 fe26 9d44 7236 4f44 61ae e045
00000070: c0f9 ad42 2203 9f42 4c1b 5545 0747 0a43
00000080: b57d a042 edb0 a544 8a3e 2544 b7ee 0343
00000090: 34f0 a043 0d79 c643 dbe1 d444 188e 6744
000000a0: d621 6b45 e111 ec43 be97 2e43 f40f 0d43
000000b0: ebaf b944 307c 1a45 e953 c344 8f46 6644
000000c0: 66ba 0845 f69f ce43 c882 ac43 47ad 1643
000000d0: 1303 1543 cd73 a643 607e 6343 b526 af43
000000e0: 7ad2 6e44 d3c7 9245 d333 b045 cd12 af45
000000f0: 442a 7d43 4cea 6442 8ac5 9c45 f88a 5543
00000100: 9880 c045 cd80 b242 d430 ad45 0ae7 4743
00000110: 841c d343 352b 4945 96d8 d843 65e3 4843
00000120: 02c1 7843 f9ca b542 552d a945 ca5b c143
00000130: 6d28 4944 1565 e944 95fe 0c43 0ffe 0c44
00000140: f63e e144 2b8b 9b42 a20f cb42 6a93 6445
00000150: be1d 8f42 7b5b eb42 20ff 1346 162a 3146
00000160: 4584 9b43 005b 0e44 abc2 3445 11db 8842
00000170: 1663 bc44 5f56 2545 1453 5c44 a11b a542
00000180: f77a c745 ebfa 9f43 1d40 c543 d4ea be44
00000190: 740e b544 6325 4a43 f422 0645 331e a842
000001a0: 0cc9 7b43 fb97 7e44 b623 2944 9b38 d343
000001b0: e92a 8c44 0bfc c644 d546 b943 f3d6 9544
000001c0: e0fd 0f45 c559 9d43 b168 8d43 d2ec da42
000001d0: b618 0845 963c d043 74fd 4444 cf2d 8b43
000001e0: 6e08 9342 5c5c 3742 95bd 0f44 effb c043
000001f0: 0dd7 0845 4e47 df42 d02e 4f44 414b c744
2278.7144 825.1923 172.55411 150.49286 57.7867 4850.892 3088.9849 3530.0562
68.899796 3297.6873 144.00267 1060.8646 693.06866 4659.605 2760.562 203.11555
196.61461 1003.1227 709.63684 219.98077 313.40488 4026.24 2003.1488 310.06406
7018.021 1257.2185 828.8507 7189.7974 86.98779 79.50612 3409.706 138.27745
80.24552 1325.5289 660.9772 131.93248 321.8766 396.9457 1703.058 926.2202
3762.1147 472.13968 174.59274 141.06232 1485.4974 2471.7617 1562.6222 921.1025
2187.65 413.2497 345.02173 150.67686 149.01201 332.9047 227.49365 350.3024
955.2887 4696.978 5638.478 5602.35 253.1651 57.228806 5016.6924 213.54285
6160.074 89.251564 5542.1035 199.9025 422.22278 3218.7004 433.69208 200.88826
248.75394 90.89643 5413.6665 386.7171 804.63165 1867.1588 140.99446 563.96967
1801.9675 77.77181 101.53053 3657.2134 71.55809 117.67867 9471.781 11338.521
311.03336 569.4219 2892.1667 68.427864 1507.0964 2645.3982 881.2981 82.55396
6383.3706 319.9603 394.5009 1527.3384 1448.4517 202.14604 2146.1846 84.05898
251.78534 1018.3747 676.558 422.44223 1121.341 1591.8763 370.55338 1198.7172
2303.8672 314.70132 282.8179 109.46254 2177.5444 416.47333 787.9602 278.35788
73.516464 45.840195 574.9622 385.96823 2189.4407 111.63927 828.73145 1594.3517
